…
    "    model.add(Dense(512, activation='relu'))\n",
    "    model.add(Dense(10, activation='softmax'))\n",
    "     \n",
    "    return model"
   ]
  },
  {
   "cell_type": "code",
   "execution_count": 12,
   "id": "bafb51b8",
   "metadata": {},
   "outputs": [
    {
     "name": "stdout",
     "output_type": "stream",
     "text": [
      "Model: \"sequential\"\n",
      "_________________________________________________________________\n",
      " Layer (type)                Output Shape              Param #   \n",
      "=================================================================\n",
      " conv2d (Conv2D)             (None, 32, 32, 32)        896       \n",
      "                                                                 \n",
      " conv2d_1 (Conv2D)           (None, 32, 32, 32)        9248      \n",
      "                                                                 \n",
      " max_pooling2d (MaxPooling2  (None, 16, 16, 32)        0         \n",
      " D)                                                              \n",
      "                                                                 \n",
      " conv2d_2 (Conv2D)           (None, 16, 16, 64)        18496     \n",
      "                                                                 \n",
      " conv2d_3 (Conv2D)           (None, 16, 16, 64)        36928     \n",
      "                                                                 \n",
      " max_pooling2d_1 (MaxPoolin  (None, 8, 8, 64)          0         \n",
      " g2D)                                                            \n",
      "                                                                 \n",
      " conv2d_4 (Conv2D)           (None, 8, 8, 64)          36928     \n",
      "                                                                 \n",
      " conv2d_5 (Conv2D)           (None, 8, 8, 64)          36928     \n",
      "                                                                 \n",
      " max_pooling2d_2 (MaxPoolin  (None, 4, 4, 64)          0         \n",
      " g2D)                                                            \n",
      "                                                                 \n",
      " flatten (Flatten)           (None, 1024)              0         \n",
      "                                                                 \n",
      " dense (Dense)               (None, 512)               524800    \n",
      "                                                                 \n",
      " dense_1 (Dense)             (None, 10)                5130      \n",
      "                                                                 \n",
      "=================================================================\n",
      "Total params: 669354 (2.55 MB)\n",
      "Trainable params: 669354 (2.55 MB)\n",
      "Non-trainable params: 0 (0.00 Byte)\n",
      "_________________________________________________________________\n"
     ]
    }
   ],
   "source": [
…
    "    model.add(Dropout(0.5))\n",
    "    model.add(Dense(10, activation='softmax'))\n",
    "     \n",
    "    return model"
   ]
  },
  {
   "cell_type": "code",
   "execution_count": 20,
   "id": "02620dde",
   "metadata": {},
   "outputs": [
    {
     "name": "stdout",
     "output_type": "stream",
     "text": [
      "Model: \"sequential_1\"\n",
      "_________________________________________________________________\n",
      " Layer (type)                Output Shape              Param #   \n",
      "=================================================================\n",
      " conv2d_6 (Conv2D)           (None, 32, 32, 32)        896       \n",
      "                                                                 \n",
      " conv2d_7 (Conv2D)           (None, 32, 32, 32)        9248      \n",
      "                                                                 \n",
      " max_pooling2d_3 (MaxPoolin  (None, 16, 16, 32)        0         \n",
      " g2D)                                                            \n",
      "                                                                 \n",
      " dropout (Dropout)           (None, 16, 16, 32)        0         \n",
      "                                                                 \n",
      " conv2d_8 (Conv2D)           (None, 16, 16, 64)        18496     \n",
      "                                                                 \n",
      " conv2d_9 (Conv2D)           (None, 16, 16, 64)        36928     \n",
      "                                                                 \n",
      " max_pooling2d_4 (MaxPoolin  (None, 8, 8, 64)          0         \n",
      " g2D)                                                            \n",
      "                                                                 \n",
      " dropout_1 (Dropout)         (None, 8, 8, 64)          0         \n",
      "                                                                 \n",
      " conv2d_10 (Conv2D)          (None, 8, 8, 64)          36928     \n",
      "                                                                 \n",
      " conv2d_11 (Conv2D)          (None, 8, 8, 64)          36928     \n",
      "                                                                 \n",
      " max_pooling2d_5 (MaxPoolin  (None, 4, 4, 64)          0         \n",
      " g2D)                                                            \n",
      "                                                                 \n",
      " dropout_2 (Dropout)         (None, 4, 4, 64)          0         \n",
      "                                                                 \n",
      " flatten_1 (Flatten)         (None, 1024)              0         \n",
      "                                                                 \n",
      " dense_2 (Dense)             (None, 512)               524800    \n",
      "                                                                 \n",
      " dropout_3 (Dropout)         (None, 512)               0         \n",
      "                                                                 \n",
      " dense_3 (Dense)             (None, 10)                5130      \n",
      "                                                                 \n",
      "=================================================================\n",
      "Total params: 669354 (2.55 MB)\n",
      "Trainable params: 669354 (2.55 MB)\n",
      "Non-trainable params: 0 (0.00 Byte)\n",
      "_________________________________________________________________\n"
     ]
    }
   ],
   "source": [
…
