…
   "outputs": [
    {
     "name": "stdout",
     "output_type": "stream",
     "text": [
      "WARNING:tensorflow:From F:\\Users\\vaish\\anaconda3\\Lib\\site-packages\\keras\\src\\backend.py:873: The name tf.get_default_graph is deprecated. Please use tf.compat.v1.get_default_graph instead.\n",
      "\n",
      "Model: \"sequential\"\n",
      "_________________________________________________________________\n",
      " Layer (type)                Output Shape              Param #   \n",
      "=================================================================\n",
      " simple_rnn (SimpleRNN)      (None, 20, 40)            1680      \n",
      "                                                                 \n",
      " dropout (Dropout)           (None, 20, 40)            0         \n",
      "                                                                 \n",
      " simple_rnn_1 (SimpleRNN)    (None, 20, 40)            3240      \n",
      "                                                                 \n",
      " dropout_1 (Dropout)         (None, 20, 40)            0         \n",
      "                                                                 \n",
      " simple_rnn_2 (SimpleRNN)    (None, 40)                3240      \n",
      "                                                                 \n",
      " dropout_2 (Dropout)         (None, 40)                0         \n",
      "                                                                 \n",
      " dense (Dense)               (None, 1)                 41        \n",
      "                                                                 \n",
      "=================================================================\n",
      "Total params: 8201 (32.04 KB)\n",
      "Trainable params: 8201 (32.04 KB)\n",
      "Non-trainable params: 0 (0.00 Byte)\n",
      "_________________________________________________________________\n"
     ]
    }
   ],
   "source": [
…
    "    \n",
    "plot_predictions(y_test, rnn_predictions, \"Predictions made by simple RNN model\")"
   ]
  },
  {
   "cell_type": "code",
   "execution_count": 17,
   "id": "f01474a3",
   "metadata": {},
   "outputs": [
    {
     "name": "stdout",
     "output_type": "stream",
     "text": [
      "Model: \"sequential_1\"\n",
      "_________________________________________________________________\n",
      " Layer (type)                Output Shape              Param #   \n",
      "=================================================================\n",
      " lstm (LSTM)                 (None, 20, 40)            6720      \n",
      "                                                                 \n",
      " dropout_3 (Dropout)         (None, 20, 40)            0         \n",
      "                                                                 \n",
      " lstm_1 (LSTM)               (None, 20, 40)            12960     \n",
      "                                                                 \n",
      " dropout_4 (Dropout)         (None, 20, 40)            0         \n",
      "                                                                 \n",
      " lstm_2 (LSTM)               (None, 40)                12960     \n",
      "                                                                 \n",
      " dropout_5 (Dropout)         (None, 40)                0         \n",
      "                                                                 \n",
      " dense_1 (Dense)             (None, 1)                 41        \n",
      "                                                                 \n",
      "=================================================================\n",
      "Total params: 32681 (127.66 KB)\n",
      "Trainable params: 32681 (127.66 KB)\n",
      "Non-trainable params: 0 (0.00 Byte)\n",
      "_________________________________________________________________\n"
     ]
    }
   ],
   "source": [
…
