…
    "plt.xlabel('Epoch')\n",
    "plt.ylabel('Accuracy')\n",
    "plt.legend(loc='lower right')\n",
    "plt.show()\n"
   ]
  },
  {
   "cell_type": "code",
   "execution_count": 42,
   "id": "4b3c3522",
   "metadata": {},
   "outputs": [
    {
     "name": "stdout",
     "output_type": "stream",
     "text": [
      "Model: \"sequential_16\"\n",
      "_________________________________________________________________\n",
      " Layer (type)                Output Shape              Param #   \n",
      "=================================================================\n",
      " conv2d_25 (Conv2D)          (None, 222, 222, 32)      896       \n",
      "                                                                 \n",
      " max_pooling2d_23 (MaxPooli  (None, 111, 111, 32)      0         \n",
      " ng2D)                                                           \n",
      "                                                                 \n",
      " conv2d_26 (Conv2D)          (None, 109, 109, 64)      18496     \n",
      "                                                                 \n",
      " max_pooling2d_24 (MaxPooli  (None, 54, 54, 64)        0         \n",
      " ng2D)                                                           \n",
      "                                                                 \n",
      " conv2d_27 (Conv2D)          (None, 52, 52, 128)       73856     \n",
      "                                                                 \n",
      " max_pooling2d_25 (MaxPooli  (None, 26, 26, 128)       0         \n",
      " ng2D)                                                           \n",
      "                                                                 \n",
      " flatten_9 (Flatten)         (None, 86528)             0         \n",
      "                                                                 \n",
      " dense_21 (Dense)            (None, 512)               44302848  \n",
      "                                                                 \n",
      " dropout_6 (Dropout)         (None, 512)               0         \n",
      "                                                                 \n",
      " dense_22 (Dense)            (None, 256)               131328    \n",
      "                                                                 \n",
      " dense_23 (Dense)            (None, 10)                2570      \n",
      "                                                                 \n",
      "=================================================================\n",
      "Total params: 44529994 (169.87 MB)\n",
      "Trainable params: 44529994 (169.87 MB)\n",
      "Non-trainable params: 0 (0.00 Byte)\n",
      "_________________________________________________________________\n"
     ]
    }
   ],
…
